data.pth (torch, 8298 bytes, 6 tensors)

l1.weight f4 [8, 113]
000000 07 ab db 3b 65 cd dc bd a4 39 5c 3e ab 2c 6b 3e
       0.0067037377 -0.107813634 0.21506363 0.22966258
000010 8f d0 b7 3e cd b2 27 3f 64 a8 ec bc 43 a1 3e bf
       0.35901305 0.65507203 -0.028888889 -0.74464816
000020 b4 4f c4 3e 9f c5 d1 3e 47 7e 7c be cd 0e d8 be
       0.3834206 0.40971085 -0.24657546 -0.42198792
000030 34 01 88 3e 52 2f 7e be fe 8e 05 3f 0c 00 12 3d
       0.26563418 -0.24822739 0.52171314 0.035644576
000040 74 a6 9f bd 5f 27 ec 3e 94 f7 7a 3e f6 ee ff be
       -0.0779542 0.46123788 0.24508506 -0.49987
000050 d0 18 cb be e5 c6 c5 3e 11 2d 62 be 29 61 4b 3e
       -0.39667368 0.38628307 -0.22087504 0.19861282
000060 0b b0 9d 3e 1c 89 f4 3d 88 29 3f 3e 42 fa 47 be
       0.30798373 0.11940214 0.18668187 -0.1952906
000070 98 f1 20 3f 8d 2e 04 3f 75 64 b8 3e 7c df 37 3f
       0.6286864 0.5163353 0.36014143 0.71825385
000080 25 9e 2f 3f 75 05 86 3e b8 0d 8a 3e ef 4c 4d 3e
       0.68600684 0.26176038 0.26963592 0.20048879
000090 8b e1 06 3f a2 cd d1 3e 73 8e c9 bb b2 27 88 3e
       0.526879 0.40977198 -0.0061510145 0.26592785
0000a0 32 9f 84 3e 6c da 77 bf ef 25 19 3f dc 24 6c bc
       0.25902706 -0.9681766 0.5982351 -0.014413085
0000b0 9f d1 29 3e 5c b0 de 3e fe d3 a5 be cb 61 b7 3c
       0.1658387 0.43493927 -0.323883 0.022385499
0000c0 d9 bf 09 bf 93 64 8b 3e 29 c8 dc be 41 8c 2c 3f
       -0.5380836 0.2722517 -0.4312146 0.6740151
0000d0 d0 fe b9 3e c7 7a f9 be 69 bb ab 3e 6b 7f d5 3e
       0.3632722 -0.48726484 0.3354142 0.41698775
0000e0 ad 79 a7 3d b8 c2 98 3e 58 3b 13 3f 66 97 d5 3e
       0.08177505 0.2983606 0.57512426 0.4171707
0000f0 38 4a 38 3e 7d 2a a7 3e da be 1d 3f 9c b5 f4 3e
       0.17997062 0.32649603 0.6161934 0.47794807
000100 46 40 44 be b8 e8 99 3d 67 96 ca 3d c2 15 98 3e
       -0.19165143 0.07515091 0.09891968 0.297041
000110 6f 91 56 bd d3 af 1c 3f 39 a2 c1 3d eb c2 45 be
       -0.05238479 0.61205786 0.0945477 -0.19312637
000120 98 da c3 be cb 3d 80 be f5 3e 25 bd 5d bf 37 be
       -0.3825271 -0.25047144 -0.040343244 -0.17944093
000130 6f e5 23 3e 33 9c 12 bf 0f 61 d4 3e c0 4d 5e 3e
       0.1600549 -0.5726959 0.414803 0.21709347
000140 01 be 6e 3c 6b f5 73 3b f1 35 c8 3e 8b 57 31 3e
       0.014571668 0.0037225138 0.39103654 0.17318551
000150 f6 d9 91 3e 6e 57 c1 3e bc 8f 0d 3f eb ba 44 bf
       0.28486603 0.37762016 0.55297446 -0.76847714
000160 5a 49 b8 3e b7 df e9 be 7f 61 58 3e fd 32 a0 be
       0.35993463 -0.45678493 0.21130942 -0.312889
000170 8d 83 77 3e 94 79 3c be 71 da 16 3f 45 72 e3 3d
       0.24171276 -0.18405753 0.58927065 0.111057796
000180 58 25 84 3e 8f b8 b6 3d 79 dc 18 bf 06 3b cd bc
       0.2580974 0.089219205 -0.59711415 -0.025052559
000190 03 98 0f 3f 63 74 0d 3f a2 d9 f8 3e 8f b0 bb be
       0.56091326 0.5525572 0.4860354 -0.3665814
0001a0 2f 1b b3 be 60 ed 86 3e 32 58 ad bd 6c 09 cb 3e
       -0.34981677 0.26352978 -0.084640875 0.39655626
0001b0 0c 00 19 3f fb 83 d5 3e 30 b3 0f 3f ba b2 9c 3d
       0.59765697 0.41702256 0.56132793 0.07651277
0001c0 41 56 83 be 60 5c 4c 3b f6 bf 39 bd 99 e9 38 3f
       -0.25651744 0.003118299 -0.045349084 0.7223144
0001d0 a0 4a 07 3f 26 da 6e be 3b ef d7 3e 85 2b 40 be
       0.52848244 -0.23325405 0.42174706 -0.18766601
0001e0 63 c2 52 3e f5 dd a6 3e 5c 88 ea be 2d b9 44 be
       0.20581965 0.32591215 -0.4580716 -0.19211264
0001f0 52 35 07 3e 7b bd 1d 3e f4 ec 0c 3d 62 d8 cc 3e
       0.13203934 0.15404312 0.034405664 0.40008837
000200 2c 05 2d 3d 73 36 1d 3e e5 f9 f3 3e 71 ac e4 3e
       0.04224126 0.15352802 0.47651592 0.44662812
000210 0d 78 f1 be d2 d7 4f 3d 05 cf f6 bd 35 8d 55 be
       -0.47161904 0.05074293 -0.120512046 -0.20854647
000220 c8 e0 9d bd 55 09 b3 be e4 f7 7a be c7 81 a2 3e
       -0.07708889 -0.34968057 -0.24508625 0.31739637
000230 1d 47 ea be 45 5c 3e 3f 93 a1 08 3f 3f 6a cc 3e
       -0.4575738 0.7435954 0.5337154 0.3992481
000240 eb 49 7f 3f 26 ba 91 3d e4 ea e1 3e 52 52 7d 3e
       0.99722165 0.07115583 0.4412452 0.24738434
000250 59 0d a1 bd 72 b4 e3 3e 33 3d a4 3e 16 e8 c0 3e
       -0.07863874 0.44473606 0.3207794 0.37677068
000260 02 0d d8 3e e0 1d 9c bd fb a9 48 3e 41 a1 04 3f
       0.42197424 -0.07622886 0.19596092 0.51808554
000270 4f 16 12 be 80 33 10 be 06 43 1a 3e ee 56 90 be
       -0.14266323 -0.14082146 0.1506463 -0.28191322
000280 be af fe 3e da 75 f1 be c4 f3 16 3f 02 41 c7 3e
       0.49743456 -0.47160226 0.58965707 0.38916785
000290 fe 95 35 3d 49 f4 00 3f 94 aa 84 be 90 af 05 3f
       0.044332497 0.5037275 -0.2591139 0.5222101
0002a0 c7 b1 ed 3e a8 ea c7 bd f6 50 12 be 56 e9 d1 3e
       0.46424696 -0.09761554 -0.14288697 0.40998334
0002b0 ca e4 97 3c 53 23 43 be ff 83 58 be fc 57 95 3e
       0.018541712 -0.19056444 -0.21144103 0.2916869
0002c0 ae 8f b3 be dc e6 50 be b4 bf e2 be 34 a8 fc be
       -0.35070556 -0.20400566 -0.44286883 -0.4934708
0002d0 60 f8 89 be b4 75 9c bd 51 6e 33 3f c4 89 21 3f
       -0.26947308 -0.076396376 0.70090204 0.6310084
0002e0 f3 22 b4 3e b7 cc ad be a1 21 a6 be 76 35 51 be
       0.35182914 -0.33945248 -0.32447532 -0.2043055
0002f0 44 26 f4 be d4 a9 0e 3d 31 16 b8 3e dd 19 4a 3e
       -0.47685444 0.03482993 0.3595443 0.19736429
000300 e8 8e 8a be 58 ff fd be f1 2a 0f be 91 f9 b5 be
       -0.27062154 -0.49608874 -0.13981225 -0.35541967
000310 cb e6 ce bd 30 0b 4a bf 42 22 f0 3e cd c4 e8 3e
       -0.10102614 -0.7892332 0.46901137 0.45462647
000320 c1 44 2b 3e 8b e3 f0 3e 98 7e 1e 3f 8e 87 b3 bd
       0.16725446 0.47048602 0.61911917 -0.087660894
000330 3c c1 c9 be b7 a6 c2 3e e5 77 55 be 05 da a6 3e
       -0.3940524 0.38017818 -0.20846517 0.3258821
000340 ab c7 f9 be 7c ce b1 3e 6f 2e 16 3f 25 f6 e5 bd
       -0.48785147 0.34727848 0.586646 -0.11228589
000350 cf a7 d7 39 6e b1 d9 3d 00 b9 f6 3e 3a 4c e9 3e
       0.00041133023 0.10629545 0.4818802 0.4556597
000360 ab af a0 be 39 fa 82 be 5c 7c 14 be be 79 43 bc
       -0.31384024 -0.2558153 -0.14500564 -0.011930881
000370 8f 3e 98 3d 33 06 0b 3f cd 8a ca be 0e de 06 3f
       0.07433807 0.54306334 -0.39559022 0.5268258
000380 bc 38 72 bd 9a ba a4 3d a1 bf e8 be c5 ce 46 3d
       -0.059136137 0.08043404 -0.454587 0.048537035
000390 4b c0 9c bd 76 94 c4 3d f3 0d d8 be 7e 3c ed bd
       -0.076538645 0.09598629 -0.42198142 -0.115838036
0003a0 b2 99 a8 bd 5a 58 d4 3e d8 ff 13 be ea e1 d0 be
       -0.0823244 0.41473657 -0.14453065 -0.4079736
0003b0 b8 f5 30 be 9e 79 12 3f 7a 0c 05 3e c7 f1 f6 3e
       -0.17281234 0.57216823 0.1299304 0.48231336
0003c0 15 cb 37 3e bb a1 98 3e 35 59 b3 3d df 56 e3 bb
       0.17948563 0.2981089 0.08757249 -0.006937846
0003d0 85 2d 39 bd 2e 9b 72 3d 0b 1f 96 3e 8f b4 9d be
       -0.045209426 0.059230022 0.2932056 -0.30801818
0003e0 ef e4 df 3c fb fb 73 be 62 95 9e be ac fe 12 be
       0.027330844 -0.23826592 -0.30973345 -0.14354962
0003f0 04 23 a4 3d f2 58 f1 be 81 2f 2a bf 51 b2 ff bd
       0.08014491 -0.47138172 -0.66478735 -0.12485183

l1.bias f4 [8]
000000 d3 d3 18 3f f7 83 f1 3e cf 80 76 3f 12 ca 6b 3f
       0.5969822 0.47170994 0.96290296 0.9210521
000010 cb 89 47 3f 91 23 94 3e 6e 5e 7d 3f 4c 68 1d 3f
       0.7794463 0.28933385 0.98972213 0.6148727

l2.weight f4 [8, 8]
000000 3e c6 56 3f d4 da 6c 3f 67 db 8f 3d 51 72 54 be
       0.83896244 0.92521405 0.070242696 -0.20746733
000010 d9 af 47 3f 86 e1 ca be 40 ca 8c bf 8b a2 ae bf
       0.780027 -0.39625186 -1.0999222 -1.3643354
000020 5b d6 74 3f b0 48 d0 3e 83 9b 9a 3e 62 54 85 3f
       0.9563958 0.40680456 0.3019677 1.0416377
000030 8d 56 fd be 70 21 c3 bf 0c 43 2e 3d 89 05 9e 3e
       -0.49480096 -1.5244579 0.04254441 0.30863598
000040 52 f3 9b 3f fd 5d 23 3f 39 ec bd bf e0 01 84 3b
       1.218363 0.6381529 -1.4837714 0.004028544
000050 ad c6 60 3e 5b 97 b4 3f 8d f0 d7 3e 0c 71 25 3f
       0.21950789 1.410869 0.42175713 0.6462562
000060 f1 e6 92 be a0 c6 2d bf 92 ab 89 3f 38 02 c8 3e
       -0.2869182 -0.678812 1.0755484 0.39064193
000070 b2 5e ba 3f a9 d3 c4 3e df 3f c0 3f 8f a2 88 bf
       1.4560149 0.38442734 1.5019492 -1.0674609
000080 6a 04 01 bf 9f a2 9b bf f3 c6 1c bf 87 06 b7 3f
       -0.5039736 -1.2159003 -0.6124107 1.4298867
000090 df 9a 7c 3f 5b 86 f2 3e 34 2a 9f bf d6 4b cf 3f
       0.98673815 0.4736813 -1.2434754 1.6195018
0000a0 e4 04 e1 bd eb b0 b6 3f d5 eb b5 3f 66 df 2f 3f
       -0.10987261 1.4272741 1.4212595 0.68700254
0000b0 1b 90 2d bf ea f0 2d bf 75 40 d4 3f 3e c6 bc 3f
       -0.6779801 -0.6794573 1.6582171 1.4747999
0000c0 9f a6 af be b5 b9 95 be 95 ff 25 be bf 6d 0d be
       -0.3430681 -0.29243246 -0.16210778 -0.13811396
0000d0 97 80 aa be e0 ee 3a 3c 7c 58 81 bd 6a c3 f6 bd
       -0.3330123 0.011409491 -0.06315705 -0.12048991
0000e0 5b cf 08 3f 90 23 ba 3f 62 24 81 3e be e7 42 bf
       0.534414 1.4542103 0.2522307 -0.7613486
0000f0 2e 29 65 3f d4 cd 41 3f c9 80 5e bf e9 62 85 3c
       0.8951596 0.75704694 -0.8691526 0.016282516

l2.bias f4 [8]
000000 07 6d 01 3f 2d 99 38 3f 55 04 a7 3d 19 9f f9 3e
       0.5055699 0.7210873 0.08155123 0.48754194
000010 a7 c1 14 3f 44 ea 02 3f b8 fe 8b be 28 3d bf bc
       0.5810799 0.5113871 -0.27342772 -0.023344591

l3.weight f4 [11, 8]
000000 c3 a7 6c 3f 6d ba 5d 3f da 2c 57 bc 35 4c a6 bf
       0.92443484 0.8661259 -0.013133252 -1.2992007
000010 c2 04 ae bf c2 41 24 bf f4 40 84 3d bc 64 19 3e
       -1.3595202 -0.6416284 0.06457701 0.14979833
000020 34 85 b9 be d8 c9 a4 bf 17 0a 09 3f 03 08 01 3f
       -0.36234438 -1.2874098 0.5353102 0.5040285
000030 c8 36 7d bf 4a 33 33 bf 02 09 7a be 83 39 67 be
       -0.98911715 -0.70000136 -0.24417499 -0.22580533
000040 f7 1e 36 3f 66 b6 ab bf d0 ff c5 3e 74 4d 45 bf
       0.71141 -1.3415039 0.38671732 -0.7707131
000050 18 dd a0 bf 25 87 a3 bf 10 55 d1 3c 5b aa 7d 3f
       -1.2567472 -1.2775618 0.025553256 0.99088067
000060 0e 27 9d bf 6d 15 b3 3e 05 14 2a 3e ac a3 e6 bf
       -1.2277544 0.34977284 0.166092 -1.8018699
000070 f2 44 aa bf a9 24 c9 3e 2b ab 81 3e 1f 22 4c 3e
       -1.330229 0.39285782 0.25325903 0.19934891
000080 16 11 a2 bf 24 e5 b9 bf 1c 7c c6 bc 24 9a 06 bf
       -1.2661464 -1.4523053 -0.024229102 -0.5257895
000090 8d ce 3f 3e 26 64 85 3e b3 49 0e be 51 3f 25 bc
       0.18731137 0.2605297 -0.13895302 -0.010085897
0000a0 cd 43 b3 bf 09 5d d2 3e 58 95 f0 bf 21 e9 a0 3e
       -1.4005066 0.41086605 -1.8795576 0.31427863
0000b0 ea 13 4e 3f 9d e2 33 be ac c4 aa be 0c 80 cc bf
       0.80499136 -0.17566915 -0.33353174 -1.5976577
0000c0 f2 64 84 bf 2b 16 19 3f 15 e4 92 bf a6 c8 e0 be
       -1.0343306 0.5979945 -1.1475855 -0.43903083
0000d0 c1 11 c0 bf 27 02 77 3f c1 4e 9c be be d4 ad bf
       -1.5005418 0.9648766 -0.30528834 -1.3580549
0000e0 35 83 89 bf 60 72 87 bf 2f 0f 14 3f 38 ae eb be
       -1.0743166 -1.058178 0.5783567 -0.46031356
0000f0 1a 1e d9 3e ba 22 ce bf 70 e0 ad bc c3 ca 9c 3e
       0.42405778 -1.6104348 -0.021225184 0.30623445
000100 c1 80 56 3f a7 76 a5 bd 6c 69 80 bf 19 e3 b4 3e
       0.8379021 -0.08079272 -1.0032172 0.35329512
000110 76 81 a8 3e 59 74 ba bf b4 86 88 3d d5 7f e5 3b
       0.3291127 -1.4566756 0.066663176 0.007003764
000120 fe 49 3e bf 8d 18 f0 3d 49 69 eb 3e 0a ed d3 bf
       -0.74331653 0.11723433 0.45978764 -1.6556714
000130 0f e9 55 3e c2 e9 d5 3d 36 8c 6e 3e 11 47 cc bf
       0.20889686 0.104449764 0.23295674 -1.5959188
000140 69 6a 89 bf 43 11 ab bf 8a 13 df bf ec ea 87 3f
       -1.0735599 -1.3364643 -1.7427838 1.0618567
000150 64 42 a8 bf 73 2d 8b 3e fd 97 98 3e b9 aa 1e bf
       -1.3145261 0.27183113 0.29803458 -0.6197925

l3.bias f4 [11]
000000 e2 67 cf bd 9e 18 73 3e 3b 6a 7d be 4f 48 9d bc
       -0.10127236 0.2373986 -0.24747555 -0.019199518
000010 54 63 50 bd 21 3a 61 bd 8a 4a f4 3e 42 77 65 be
       -0.050875977 -0.054987077 0.4771312 -0.22408774
000020 fa 15 09 be 7d 16 83 bd b9 f9 f5 bd
       -0.1338729 -0.06400774 -0.120105214
